mental_model_class.pth (torch, 3638 bytes, 6 tensors)

0.weight f4 [16, 4]
0.74495316 0.25298932 0.044399574 -0.29946533 0.33810198 -0.025374712 0.5229813 -0.7445234
0.63811135 0.21015897 0.71476614 -0.5220546 -0.2571756 -0.3854954 0.104945146 -0.15875876
0.43035704 -0.3472131 0.6805413 -0.36318943 -0.48038745 -0.2389607 -0.63976955 0.46184975
-0.049139872 -0.020255253 0.49326682 -0.566481 -0.19266883 0.20495857 -0.200139 0.5707301
0.8397807 -0.4325492 0.20269945 -0.571352 0.20375903 -0.37378195 -0.03880295 -0.22088446
0.5185986 -0.046549845 0.6018347 -0.9686352 0.07472349 0.01776879 -0.54876786 0.8517866
-0.13611317 -0.13789734 -0.45848826 0.9383511 -0.6362996 0.6606639 -0.7314051 0.81130964
0.31081298 0.2619779 -0.45384884 0.5037307 0.5015756 0.15807396 0.6140964 -0.79469556
00000000: 40b5 3e3f d187 813e 54dc 353d 8553 99be
00000010: b41b ad3e a1de cfbc 1ae2 053f 1699 3ebf
00000020: 445b 233f ea33 573e eafa 363f 5fa5 05bf
00000030: 85ac 83be a75f c5be 7bed d63d a891 22be
00000040: c257 dc3e eac5 b1be f437 2e3f f7f3 b9be
00000050: 58f5 f5be 1db2 74be f0c7 23bf 9277 ec3e
00000060: e446 49bd 58ee a5bc 788d fc3e e604 11bf
00000070: fa4a 45be a9e0 513e 3df1 4cbe 5e1b 123f
00000080: defb 563f 1777 ddbe 7290 4f3e 2044 12bf
00000090: 35a6 503e 5960 bfbe d8ef 1ebd 892f 62be
000000a0: e1c2 043f 0dab 3ebd d711 1a3f 7af8 77bf
000000b0: a108 993d da8f 913c 0d7c 0cbf b00e 5a3f
000000c0: 4061 0bbe f634 0dbe f9be eabe c737 703f
000000d0: 88e4 22bf 4521 293f 5d3d 3bbf fdb1 4f3f
000000e0: e122 9f3e f821 863e e05e e8be 7ff4 003f
000000f0: 4267 003f 24de 213e 6c35 1d3f 2b71 4bbf

0.bias f4 [16]
0.6636072 -0.2820162 -0.10012866 0.43764195 -0.19266252 0.546081 0.85585964 -0.6873751
0.44109023 1.0622629 -0.35528305 0.6436117 0.7198935 -0.0014742725 0.62027144 -0.08909688
00000000: 29e2 293f 6d64 90be 4110 cdbd 9b12 e03e
00000010: 5349 45be f7cb 0b3f 9e19 5b3f d1f7 2fbf
00000020: 94d6 e13e 3bf8 873f a9e7 b5be bdc3 243f
00000030: f14a 383f 603c c1ba 1cca 1e3f 6d78 b6bd

3.weight f4 [8, 16]
0.27778748 0.44262993 0.4837497 0.16600916 0.32683524 -0.42969278 0.34705812 -0.32948974
0.13388476 0.2917032 0.65733945 -0.5235072 -0.4434851 -0.6900295 -0.1504878 0.39146164
0.21810359 0.49299437 0.38547292 0.030147763 0.33611023 -0.5685661 0.41055986 -0.055298254
0.32701474 -0.021473227 0.4544182 -0.7805669 -0.8324836 -0.7282825 -0.24200498 0.29446077
-0.7206771 -0.026833313 -0.11727784 -0.25975505 -0.05963775 -0.15537664 -0.47387323 0.37585098
-0.3435113 -0.86596644 0.11672565 0.04194393 -0.0150765125 0.46991757 0.2746368 0.012545895
-0.83027726 -0.344412 -0.13311157 -0.3790674 -0.10184366 0.23782168 -0.94287175 0.78324914
-0.40745106 -0.76843184 -0.15908997 0.15316908 0.42623708 -0.32085082 0.35007024 -0.04873519
1.0737346 -0.06312166 0.21433546 0.5501661 0.121061884 -0.0634713 1.0146554 -0.4932279
0.50837904 0.9448219 0.019937161 -0.033080928 0.022631755 -0.10078692 0.24024783 0.35871887
-0.043852944 -0.2357279 -0.1124354 -0.23069738 0.09789997 -0.37409583 0.046311505 0.018189799
-0.09494242 -0.067355156 0.119110495 0.010266555 -0.029701604 0.011277407 -0.18909922 -0.13776883
-0.1529508 -0.36175117 -0.16991872 0.0885419 -0.14245884 0.8489724 -0.26175395 0.5836035
-0.013860641 -0.070133254 -0.287043 0.85245264 0.67656726 0.71941996 0.62341547 -0.0550223
0.17913848 0.3739407 0.48910937 -0.0014660981 0.24562573 -0.6723484 0.3140628 -0.0009035303
0.4023152 0.10183561 0.53551847 -0.7938734 -0.67220217 -0.3283491 -0.37284738 0.4535716
00000000: 293a 8e3e 64a0 e23e 0aae f73e 4efe 293e
00000010: f356 a73e b100 dcbe 9ab1 b13e e1b2 a8be
00000020: 1619 093e 1f5a 953e 6647 283f 9104 06bf
00000030: 7b10 e3be c6a5 30bf 7919 1abe a96d c83e
00000040: 8c56 5f3e c269 fc3e b55c c53e 71f8 f63c
00000050: a416 ac3e 8c8d 11bf e734 d23e 6c80 62bd
00000060: 7a6e a73e 9fe8 afbc 81a9 e83e 3bd3 47bf
00000070: a51d 55bf b970 3abf 27d0 77be 90c3 963e
00000080: 4b7e 38bf 89d1 dbbc 5d2f f0bd 9dfe 84be
00000090: b746 74bd 0e1b 1fbe 839f f2be 8a6f c03e
000000a0: b7e0 afbe faaf 5dbf dc0d ef3d 66cd 2b3d
000000b0: 7a03 77bc 0999 f03e 329d 8c3e 4c8d 4d3c
000000c0: 0d8d 54bf c556 b0be 664e 08be 1f15 c2be
000000d0: 6993 d0bd 8787 733e 0b60 71bf 0483 483f
000000e0: 6d9d d0be f3b7 44bf 7be8 22be 5bd8 1c3e
000000f0: bf3b da3e 8f46 a4be 683c b33e 8d9e 47bd
00000100: 2370 893f ee45 81bd c17a 5b3e afd7 0c3f
00000110: 4bef f73d 3efd 81bd 3ae0 813f 5e88 fcbe
00000120: 2125 023f d9df 713f 4253 a33c de7f 07bd
00000130: 3b66 b93c 5f69 cebd 8703 763e 00aa b73e
00000140: 259f 33bd a862 71be 8844 e6bd ef3b 6cbe
00000150: c87f c83d 7d89 bfbe 22b1 3d3d c602 953c
00000160: 2c71 c2bd 80f1 89bd 34f0 f33d 0d35 283c
00000170: c750 f3bc e0c4 383c 3aa3 41be 4613 0dbe
00000180: 229f 1cbe 7337 b9be 2cff 2dbe 7555 b53d
00000190: bbe0 11be 4156 593f 9d04 86be 0a67 153f
000001a0: be17 63bc 06a2 8fbd 4df7 92be 563a 5a3f
000001b0: 8333 2d3f e82b 383f 2898 1f3f 105f 61bd
000001c0: 1470 373e 2875 bf3e 8b6c fa3e 172a c0ba
000001d0: 5085 7b3e 061f 2cbf d7cc a03e e4da 6cba
000001e0: 42fc cd3e 308f d03d bd17 093f 4a3b 4bbf
000001f0: 7115 2cbf 601d a8be dae5 bebe 893a e83e

3.bias f4 [8]
-0.1682129 -0.076666 -0.17885028 -0.13249436 0.71624875 -0.3919079 0.83972347 0.0024829423
00000000: 0140 2cbe 1003 9dbd 8724 37be 9aac 07be
00000010: 145c 373f 27a8 c8be 1ef8 563f dcb8 223b

5.weight f4 [3, 8]
-0.6367836 0.06639689 0.60250616 0.8036069 -1.0554163 0.073690765 0.5720778 -0.4262672
-0.38531873 -0.48626888 -0.50560707 -0.33131135 0.7488242 0.2141953 0.34701172 -0.63963044
0.39821848 0.963014 -0.15516417 -0.096618116 0.29287973 -0.43378028 -0.872196 0.8859976
00000000: 4004 23bf 18fb 873d d83d 1a3f 2fb9 4d3f
00000010: e217 87bf 2feb 963d b173 123f b23f dabe
00000020: 7f48 c5be 3cf8 f8be 776f 01bf a4a1 a9be
00000030: f1b2 3f3f 0356 5b3e 85ab b13e d2be 23bf
00000040: 4be3 cb3e 1688 763f 5be3 1ebe b8df c5bd
00000050: 55f4 953e 7318 debe 3d48 5fbf bdd0 623f

5.bias f4 [3]
-0.29153514 0.6303658 -0.23309292
00000000: 1844 95be a75f 213f e9af 6ebe
